backend/script/attn/DATA/제공받은자료(함안보~2021)/CH2_vv6.pth (torch, 5255 bytes, 8 tensors)

conv1.weight f4 [1, 1, 2]
00000000: 89a8 bc3c 8c01 963f
0.023029583 1.1719222

lstm.weight_ih_l0 f4 [8, 6]
00000000: 9572 3ebf d8bc 98bf 462c 1ac0 fe37 bc3e
00000010: c80d 5c3f d992 b43e 59c6 583f 4dce 3bbf
00000020: b92a 2c40 c402 ea3f f260 bcc0 91ec dec0
00000030: f2d8 e03e fe6d 9f3e 80f8 ffbd 9696 00bf
00000040: 502c bfbd d2d2 e13e debe 29bf fb8b 1d3f
00000050: c09e e2bc 1fca 9ebe 43dd bfbe f6fb d03e
00000060: f8dc 593f f8d9 42be b7ba fb3e 27db 34be
00000070: e589 46be 6b4a f33e 6e56 12bf 66aa 1c3b
00000080: 4319 cc3e 51a6 5a3e 7e71 11bd f2bb fdbd
00000090: 95e8 c73f 4cbf f43e 58ff d7be 8d8d bfbe
000000a0: 2ff4 6d3e 7aa3 f540 1f58 7e3e b0dd 8f3f
000000b0: 7d88 eb3e 7b32 8a3e 3631 8cbe 5457 adbf
-0.7439359 -1.193263 -2.4089522 0.3676147 0.8595853 0.35268286 0.84677655 -0.73361665
2.6901076 1.8282094 -5.886834 -6.9663777 0.43915516 0.31138605 -0.124985695 -0.50229776
-0.09334624 0.44106156 -0.66306865 0.6154172 -0.027663589 -0.3101358 -0.37473497 0.4081723
0.85102797 -0.19028461 0.4916589 -0.17661725 -0.1938854 0.47517714 -0.5716313 0.0023905276
0.39863023 0.21352507 -0.035508625 -0.12389363 1.5617853 0.47802198 -0.42187 -0.37412682
0.2323768 7.6762056 0.24838303 1.1239529 0.4600257 0.2699164 -0.27381295 -1.3542275

lstm.weight_hh_l0 f4 [8, 2]
00000000: 40ed e2be e45b 8fbe 993e 013f b831 0b3e
00000010: 1c2f 023e 0605 ca3e 025e 0bbf 51fe d0be
00000020: ad22 053f 3133 073f 9fc1 1a3f 8885 c8bd
00000030: aaa3 2bbf b71a dbbe 40bc 30bf 4166 bbbe
-0.44321632 -0.27999794 0.5048614 0.13593185 0.12713283 0.39456958 -0.5444032 -0.40819028
0.52006036 0.52812487 0.6045169 -0.09791094 -0.67046607 -0.4279382 -0.69037247 -0.3660145

lstm.bias_ih_l0 f4 [8]
00000000: 7754 73bf 2dfb 4d40 78eb 5fbe f586 313f
00000010: 3328 82bf 341f b93e 3963 18bf 3417 913f
-0.9505076 3.2184556 -0.21867168 0.69346553 -1.0168518 0.3615662 -0.595264 1.1335206

lstm.bias_hh_l0 f4 [8]
00000000: 9386 61bf e1b7 5840 3830 febe 724c ccbe
00000010: 7b4d 963d 396b 533f 6cea 25be 2040 793f
-0.8809597 3.386223 -0.49646163 -0.39902073 0.07338997 0.82585484 -0.16202706 0.9736347

fc_1.weight f4 [128, 2]
00000000: c0e4 d23d 0f59 10bf f6fd f03e 4beb 2d3f
00000010: ecd8 94be 8038 9f3d 2411 403e 8410 2dbf
00000020: b054 eebe 35c2 fa3e a872 9c3d bdb4 1f3f
00000030: 9ed6 7bbe 5ea5 96bf 5f72 2a3f e866 e3be
00000040: e2fc 563e e08b 0ebf 7382 7a3d 9737 e93e
00000050: 26b7 fb3f 90f9 ffbe 17db 2bbf 4417 933e
00000060: a6f8 1b3f cc42 adbd e64e f9be 963b 1f3f
00000070: 7258 6ebe 2092 563e 4d3a c33e be78 2ebf
00000080: 0270 c2be 34f7 73bf 02f9 9f3e cff3 2abc
00000090: f44f cfbe fc73 3a3e 258f 233f 876c 003f
000000a0: dae8 7bbe 28ef babe 92ed 6e3e 431a f2be
000000b0: 9051 463e 9c16 51be 26f2 243f d01d 403e
000000c0: 088c 0abe ccda f3be d73f e3be 8e3d b0be
000000d0: 14ac bcbe 2675 fc3e b75e 883e 68c5 edbd
000000e0: 2c13 573e 4b5d 4dbf f00a 133d 91a3 03bf
000000f0: 0c86 c33c 7e3b 1f3f 1c08 1abf 8847 eabe
00000100: 583c c23e 856f 69be 9014 39bf b3bd 05bf
00000110: 8076 083d 2076 95bc 6e7c c8be 4b59 0abf
00000120: 8311 403e f7ba 38be e7e1 2d3f 088c 793e
00000130: 3d8e 333f 30fb 0c3d 84cf 1bbf 1412 893e
00000140: c735 70be 4235 533e 8ffe c8be 0265 bfbe
00000150: 441b fe3e b2b5 093f 943f 283e 3091 933d
00000160: 86cd c93e 28d5 96be 8c17 803e a340 013f
00000170: b980 d7bd f0b4 fa3d 1e5a c7be 86da ae3e
00000180: 02cf 233e f386 a2be 717b 6c3e 177a 023f
00000190: 6602 e03e ddfd 8dbe 28c7 14bf 8be1 b93e
000001a0: 215e b6be c130 1d3f 60ad b13e 8905 f0be
000001b0: 2fbc d8be 2869 633f 4663 fe3e 762b 21bf
000001c0: 92d9 71be 856f 163f 796f c43f 24c1 39bf
000001d0: 3faa b7be d824 e6bd 928d e2be 0f33 47be
000001e0: c9cd 293f cd30 93be 7b57 9e3e 2279 b1be
000001f0: b6e4 bb3e a421 813e 17fc a53f 18fe 22c0
00000200: 6235 ad3e fda8 82be ab34 9bbe 8aa1 bc3e
00000210: 1c6b 84be c597 dcbe dd6e b8bd 6c41 103e
00000220: f4bc 8a3e bea9 153f 40c9 01bc 4037 23be
00000230: a106 ab3f 34f1 373e 0804 0cbe bb0d acbe
00000240: 2fe7 663f e081 15be a411 d83e 8172 0f3f
00000250: 8cb5 f93e fd4c 153f 9b62 9cbe 1d6a 02bf
00000260: 17e1 cebc e2bf b53e 6eb1 adbe 6645 0abf
00000270: d014 e93d 5822 273e 5b1f 00bf ba86 293f
00000280: d281 a13e fcbf 0fbf 7bc4 99be cfd8 38bf
00000290: c813 b6bd c8e8 b1bd 63c0 71bf 74a2 2f3f
000002a0: 2e6e 803c 8ca6 113f 6e42 cb3e 1b9e b03e
000002b0: 93b8 4cbf c861 1bbf a04f fdbd 70cd 093f
000002c0: 8fbb 01be 84a2 e63e 12fe 64be 9ebb f13e
000002d0: 76ce e8be a835 ddbd fba6 a0be 41fa f63d
000002e0: 67d5 67be 44bc 3ebe ddcd 1d3f 88ad e5be
000002f0: a8ba 823d d061 a4bd e4fe 80be af3b 0cbf
00000300: 8bf5 133f b6c3 7fbe 0795 7abd 5ed7 f13e
00000310: 5b09 e4be 4e13 493e 4243 abbe 2f00 fa3c
00000320: d975 1d3f 2084 34bf 2b22 dabe a8d1 733e
00000330: d0b9 98be 75e3 aebd daf2 f13e a5de 313f
00000340: d53a 483f 073b 343e 7bc8 823e 8de4 0f3f
00000350: da68 8ebe b7e8 483d 73dc 443f 8b5c 8c3e
00000360: c586 a63f 187d 0b3e 399c 05bf 00d2 193e
00000370: adcd 24be 5534 5cc1 47d1 0ebf 3fe5 93be
00000380: 0f81 69bd a4fe b03e d487 a8bf 4845 b4be
00000390: 8a3b 203e 1d67 b2be a8df 05bf f289 2bbf
000003a0: 1298 fe3e 814c f73e 9055 e13d 50a7 60bd
000003b0: c909 123f 6218 a43e c269 e5be f320 33be
000003c0: afbb 0e3f 4412 f73e 07fe 29bf 1056 a9bc
000003d0: dc0f f7bf ee65 c3be a851 72be de28 04bd
000003e0: 711d 733e 3838 d1be 41cf 033f 783e 2abf
000003f0: 6a13 6a3e 8280 123e c8d1 4cbe 4ba4 013e
0.10297537 -0.5638589 0.47068757 0.67937154 -0.29071748 0.077744484 0.18756539 -0.67603326
-0.46548986 0.48976293 0.076390564 0.6238516 -0.24593589 -1.1769216 0.66580766 -0.4441445
0.20994905 -0.5568218 0.061159562 0.45550224 1.9665267 -0.4999509 -0.6713118 0.28728688
0.6092628 -0.08460006 -0.48693007 0.62200296 -0.23275927 0.2095418 0.38130417 -0.6815299
-0.3797608 -0.9529908 0.31244665 -0.010434105 -0.40490687 0.18208307 0.63890296 0.501656
-0.24600545 -0.36510587 0.23332813 -0.4728566 0.19367051 -0.20418781 0.6443199 0.18761373
-0.1352998 -0.47627866 -0.44384643 -0.34421962 -0.36850035 0.49308127 0.26634762 -0.11609918
0.21003407 -0.8022048 0.035899103 -0.5142146 0.02386763 0.6220015 -0.60168624 -0.457577
0.37936664 -0.22796448 -0.72297 -0.52242583 0.033316135 -0.018244803 -0.39157432 -0.540425
0.1875668 -0.18040071 0.67922825 0.24369824 0.70138913 0.03441924 -0.6086352 0.26771605
-0.23458014 0.20625785 -0.39256713 -0.3738175 0.49630177 0.5379287 0.16430503 0.07205427
0.39414614 -0.294595 0.25017965 0.5048925 -0.10522599 0.12241542 -0.3893594 0.34151095
0.15996936 -0.31743583 0.23093964 0.50967544 0.4375183 -0.27732745 -0.5811639 0.36304888
-0.3561869 0.6140252 0.34702587 -0.46879223 -0.42331073 0.8883233 0.49685115 -0.6295694
-0.23618153 0.58763915 1.5346519 -0.72560334 -0.35872075 -0.11237496 -0.44248635 -0.19453071
0.6632963 -0.2874817 0.30926117 -0.3466273 0.3669793 0.25220978 1.2967557 -2.5467587
0.3382979 -0.25519553 -0.3031362 0.36841995 -0.25862968 -0.4308454 -0.090055205 0.14087456
0.27097285 0.5846213 -0.007921517 -0.15939045 1.3361398 0.17963105 -0.13673413 -0.33604226
0.9019651 -0.14600325 0.4220096 0.56034094 0.48771322 0.583206 -0.3054398 -0.50943166
-0.025253816 0.35497957 -0.3392443 -0.54012144 0.11380923 0.16321695 -0.50047845 0.662212
0.31544358 -0.5615232 -0.30032715 -0.72205824 -0.08890492 -0.086869776 -0.94434184 0.6860726
0.015677538 0.56894755 0.3969912 0.34495625 -0.7996914 -0.6069608 -0.12368703 0.538291
-0.12669204 0.45045865 -0.22362545 0.47213453 -0.45470017 -0.1080125 -0.31377396 0.12059451
-0.2264 -0.18626505 0.6164225 -0.44858956 0.06383258 -0.08026469 -0.25194466 -0.5477857
0.57796544 -0.24977002 -0.06117728 0.47234625 -0.44538388 0.1963627 -0.3344975 0.030517666
0.61507946 -0.70514107 -0.42604193 0.23810446 -0.29829264 -0.08539478 0.47255594 0.69480354
0.7821477 0.17600642 0.2554358 0.56208116 -0.2781437 0.04905006 0.7689888 0.27414355
1.3009878 0.13621938 -0.521915 0.15021515 -0.16094084 -13.762776 -0.5578808 -0.28885838
-0.057007845 0.34569275 -1.3166451 -0.35209107 0.15647712 -0.34844294 -0.522944 -0.6700736
0.49725395 0.48300555 0.11002648 -0.05484706 0.5704618 0.32049853 -0.4480725 -0.17493038
0.5575513 0.48256123 -0.6640324 -0.02067092 -1.9301715 -0.38163704 -0.23663962 -0.032265536
0.237417 -0.40863204 0.5148812 -0.6650157 0.22858968 0.14306834 -0.200019 0.12660329

fc_1.bias f4 [128]
00000000: e926 fdbe 40e9 06bf a8ed 13bf a677 69be
00000010: 0a09 b7be c08b f3be 07f7 573e d72f c3be
00000020: 3fef d13e f238 ad3d 4e5c eebe 5046 35be
00000030: 2b61 793d bf69 613e a696 8fbe 4d5f 033f
00000040: 4d33 c53e ad63 183f a595 dabe 5cbd 173f
00000050: 69b9 253e 34bf 563e c080 3fbe a3e7 cabe
00000060: 1413 33bf 402e 0fbf 73ea 09bf d018 4c3e
00000070: bb5c b63e 9053 4bbe e91f ff3e 7a9f 8d3e
00000080: 1a9f 173f 05da 9d3e 8792 a6be 7ee1 183f
00000090: 1098 c83d 0618 b7be d0f8 14bf f8a5 f93e
000000a0: 6759 153f a590 bebe 3eda 183c cada 5ebe
000000b0: f2b0 d2be be22 c4be 9a33 233f a65f 21bf
000000c0: 8bd6 243f dfe6 9fbe 304f fb3d 384d 833e
000000d0: 4ffa 933e 7bee 543e 7364 73be edec d4be
000000e0: a203 043f 85cf 383d dbd7 d9be 583a 4f3e
000000f0: 107f 34bf 1bb8 2d3f 35c1 02bf db78 a73e
00000100: 6ad2 a7be eb39 103f faca 183f eace ed3e
00000110: efb0 85be 0562 98be 4e4d 2bbf cc84 963e
00000120: bee0 ecbe 3ae3 ab3e f9a7 b1be f506 e2be
00000130: 023b 8b3e 2961 c43e 4ec2 0cbf 9fce c53e
00000140: e4da 2cbf 064b 0b3f bcbe 2bbe 6ba0 ca3e
00000150: 483a 163f 2728 88be de67 003f b94f d1be
00000160: bb44 e83e 15a7 b7be 5004 85bd 2391 683e
00000170: b52e b33e 9765 b5be 246b 43be b3cc b0be
00000180: b9ac ce3d 68d4 423e ca79 213f a13e 1a3e
00000190: fabc e3be 6469 76be 67dc 033f 56d8 20bf
000001a0: 6ee0 323e f037 b0be 078b c73e 0fe9 d13e
000001b0: 1c8d 27bf 1d28 81be 737b 053d 1f85 2fbf
000001c0: bdc5 213f eece 9f3e 1a17 293f d06c 34be
000001d0: 7a85 bbbe 8e47 11bf 909f b5be 66df ec3e
000001e0: e23c 813e d6e6 943e be1c ea3e 36dc bb3e
000001f0: 4c47 053f a576 11bf a878 1b3f c99c cbbd
-0.4944375 -0.5269966 -0.5778451 -0.22799549 -0.35749084 -0.47567558 0.21090327 -0.38122436
0.41002843 0.08458127 -0.46554798 -0.17702603 0.060883682 0.22012995 -0.28044623 0.5131729
0.38515702 0.59527093 -0.42692295 0.59273314 0.1618401 0.20971376 -0.18701458 -0.3962985
-0.69950986 -0.55929947 -0.53873366 0.1993134 0.35617623 -0.19856095 0.49829033 0.27660733
0.59227145 0.30830398 -0.32533666 0.59719074 0.097946286 -0.35760516 -0.5819216 0.48759437
0.5833954 -0.3721973 0.009329377 -0.21763149 -0.41150624 -0.38307756 0.6375061 -0.6303657
0.64389867 -0.31230828 0.12270963 0.2564485 0.28901908 0.20794098 -0.23768787 -0.4158701
0.51568043 0.04511978 -0.42547497 0.202371 -0.7050638 0.6785905 -0.5107606 0.32709393
-0.3277772 0.56338376 0.5968472 0.46446925 -0.26111552 -0.29762283 -0.6691483 0.2939819
-0.46265215 0.33571798 -0.34698465 -0.44145933 0.27193457 0.38355377 -0.54983985 0.38634202
-0.675215 0.5441135 -0.16771978 0.39575514 0.5868268 -0.26593134 0.5015849 -0.40881136
0.45364937 -0.3586966 -0.06494963 0.22711615 0.34996572 -0.3542907 -0.1908384 -0.34531173
0.10091538 0.19026339 0.6307646 0.15062954 -0.44480115 -0.24063641 0.5150818 -0.628301
0.17468426 -0.34417677 0.38973257 0.40998122 -0.6544969 -0.25225917 0.032588433 -0.685625
0.6319235 0.31212562 0.66050875 -0.17619634 -0.36625272 -0.5674981 -0.354733 0.4626419
0.25241762 0.29082364 0.45725054 0.36691445 0.52061915 -0.5682166 0.6073098 -0.09942014

fc.weight f4 [1, 128]
00000000: d099 c23c 38b5 783c a640 083d e800 493c
00000010: c201 b0bc 38c0 023c 35b4 a33e 3294 7abc
00000020: 2f2e 04bc f427 6fbc f7b2 8c3f e544 473e
00000030: 0459 b03e f896 c5be 8b1b 37bd d899 683d
00000040: cd34 17bf a623 87bc 7c60 923c 1ea0 d93b
00000050: f43e 443e 29fe 183e 14ef abbc 81f2 27bd
00000060: d7e9 903d a6fb 413d 9818 443c 4da9 c93d
00000070: 5660 cc3d 9c6d 0b3d 1c74 883c 248b 33bf
00000080: 911c 893d a02c cfbd 15dc 12bd 4ef9 5c3d
00000090: 9e0b 2b39 62e3 94c0 8bd0 a13d 688e 54bc
000000a0: 6ddf 143c cded 8abd 68d7 d0bc 5f21 8c3d
000000b0: 6210 673d 64cd 483d 542c cd3c 881a fabc
000000c0: 0deb 0abd 4826 0b3e d8e2 b83d 374d 67be
000000d0: c791 92bd c52c 4e3e 31bc 0b3f 20c7 1fbc
000000e0: 8e2d a23c 4684 493f 2a67 313d 2a5a dabe
000000f0: 849a b63c c5ff 23bd f1f1 35bd d3e0 09bf
00000100: e1e6 86bd 1bcc 973c b0c0 2f3d 4c6d 8ebd
00000110: 5600 283e 7d65 b23d f756 6ac0 9c52 c9bc
00000120: 4f45 8fc0 3703 883d f324 7b3e a219 523d
00000130: cdf1 96bd 51b4 29bd 7474 d3bc 2495 7fbd
00000140: 2674 16bd cecd 723d 5896 98bc 2660 abbd
00000150: 970d 713c c0db 143c 0680 64bc ad79 08bb
00000160: 58ce 9ebc 5823 1f3d 180a 493c 1de3 933c
00000170: b501 1a3d 3f0c 873c 5077 f2bb bbf6 973d
00000180: bbe1 f8bd 6510 683d d620 603d efdc b3bd
00000190: 8a9c 1fbd 86fa 523d ac67 783d 6a9e 403d
000001a0: c19f eb3c c938 363e 121b 2e3d 7222 3e3d
000001b0: fef6 71c0 524c 8fbd e5fc c03f 86b1 95bd
000001c0: 39a7 dc3c 13ae c83e 2a53 74bc 8d3f ae3d
000001d0: 8ed5 96bd 2295 393d f4af 8dbd cbd9 46bd
000001e0: c2cc 75bd fa39 96be 24d7 673f 2fc3 123d
000001f0: a670 6c3d a0d8 7e3c eaf0 24bc 73ad 3ebd
0.023754984 0.015179925 0.03326478 0.0122682825 -0.021485213 0.007980399 0.31973425 -0.015294122
-0.008067652 -0.014596928 1.0992116 0.19459875 0.34442914 -0.38591743 -0.044704 0.05678734
-0.5906494 -0.01649649 0.017868273 0.006641402 0.1916464 0.14940704 -0.020988025 -0.041002754
0.070758514 0.04735913 0.011968754 0.09846745 0.09979312 0.03404008 0.016656928 -0.70134187
0.06694902 -0.101159334 -0.035854418 0.053948693 0.00016312159 -4.6527567 0.079011045 -0.012973405
0.009086472 -0.06783638 -0.025493339 0.068423025 0.05641211 0.049024 0.025045551 -0.03053023
-0.03391557 0.13588822 0.09027642 -0.22588049 -0.07156711 0.20134266 0.5458403 -0.009752065
0.019797113 0.7871746 0.043311276 -0.42646915 0.022290476 -0.040038843 -0.044420186 -0.5385868
-0.065870054 0.018529942 0.04290837 -0.069544405 0.16406378 0.087107636 -3.661558 -0.024575524
-4.4772105 0.06641238 0.24525814 0.051293977 -0.073703386 -0.04143173 -0.025812365 -0.06239809
-0.03673186 0.059278302 -0.018626377 -0.08367948 0.014712713 0.009085596 -0.013946539 -0.0020824478
-0.019385502 0.038852066 0.012270473 0.018052632 0.037599284 0.016485332 -0.007399477 0.07420107
-0.1215243 0.05665626 0.054718815 -0.08782374 -0.038967647 0.05150845 0.060645744 0.047026075
0.0287627 0.177951 0.042506285 0.04641957 -3.7807002 -0.06996979 1.5077177 -0.073092505
0.026935207 0.39195308 -0.014912406 0.08508215 -0.07364951 0.04530824 -0.06918326 -0.048547547
-0.060009725 -0.29341108 0.90562654 0.035830673 0.057724617 0.015554577 -0.010067204 -0.046552133
