backend/script/attn/DATA/제공받은자료(함안보~2021)/당일예측/CH2_vv6.pth (torch, 5255 bytes, 8 tensors)

conv1.weight f4 [1, 1, 2]
0.005147583 1.8122783
00000000: 0ead a83b bcf8 e73f

lstm.weight_ih_l0 f4 [8, 6]
0.8951932 -0.6825242 -0.44337726 0.9429307 -0.37054995 1.2286519 -0.062378675 -0.47958955
-1.8555485 0.57764286 -0.06871839 1.9654623 0.50085574 0.5153361 0.5144971 -0.42576924
-0.2595885 0.40477628 -0.1529597 -0.09488577 -0.654317 0.22970873 0.4207757 -0.5201235
0.5727448 -0.3856909 0.30721962 -0.030593928 0.14154707 0.16311635 0.70032984 -0.11909261
-0.10891003 0.30745158 0.23460105 -0.20523334 0.83973026 0.17116393 -1.1840676 -0.27989945
1.729786 -0.03703738 1.0105197 0.42706454 -0.88207036 0.5612802 -2.315927 0.11500539
00000000: 622b 653f e8b9 2ebf 5802 e3be e863 713f
00000010: b9b8 bdbe 7744 9d3f c880 7fbd c38c f5be
00000020: 9d82 edbf 67e0 133f 3abc 8cbd 4594 fb3f
00000030: 1538 003f 11ed 033f 15b6 033f 6dfe d9be
00000040: c9e8 84be d63e cf3e 78a1 1cbe 7853 c2bd
00000050: 5281 27bf c438 6b3e ea6f d73e d026 05bf
00000060: 679f 123f 4779 c5be e44b 9d3e 1ea0 fabc
00000070: b7f1 103e f907 273e d148 333f d4e6 f3bd
00000080: 390c dfbd 4b6a 9d3e 423b 703e b028 52be
00000090: 90f8 563f 9945 2f3e 878f 97bf fb4e 8fbe
000000a0: a169 dd3f 82b4 17bd b658 813f 34a8 da3e
000000b0: 5dcf 61bf 0fb0 0f3f 2638 14c0 f287 eb3d

lstm.weight_hh_l0 f4 [8, 2]
0.64487 -0.48179656 -0.24265954 0.30554456 0.4319324 -0.11482 -0.18160874 0.2267937
-0.6867514 -0.6232023 0.14428037 0.012568295 0.09562504 0.65994626 -0.53834486 0.6207699
00000000: 3316 253f 0aae f6be be7b 78be 5670 9c3e
00000010: 3e26 dd3e c026 ebbd a4f7 39be 9c3c 683e
00000020: f1ce 2fbf 308a 1fbf 3cbe 133e 40eb 4d3c
00000030: 10d7 c33d 3df2 283f f8d0 09bf c7ea 1e3f

lstm.bias_ih_l0 f4 [8]
0.038648065 -1.089206 -0.07129502 0.3329597 -1.1445017 -0.27167985 -0.2610543 -0.85550296
00000000: 6f4d 1e3d 1a6b 8bbf 2003 92bd b279 aa3e
00000010: 087f 92bf 9f19 8bbe e9a8 85be 3e02 5bbf

lstm.bias_hh_l0 f4 [8]
0.028855903 -2.1939178 -0.55056894 -0.33876953 -0.854871 0.02301733 -0.619876 -0.4034237
00000000: 3763 ec3c 2669 0cc0 16f2 0cbf 3373 adbe
00000010: d3d8 5abf d78e bc3c 32b0 1ebf 8d8d cebe

fc_1.weight f4 [128, 2]
0.6169172 0.20780993 0.22584724 0.6519126 -0.8763561 1.07231 -0.6529205 -0.56322855
0.61155796 0.69894624 -0.06906825 -0.3794494 0.48004192 -0.325125 0.54404217 -0.09613192
0.40620342 -0.41391146 0.42888552 0.2956 -0.5733409 0.8289992 0.6213448 0.06307936
-0.365785 -0.6598444 -0.12667513 0.0052990317 0.41149306 0.633057 0.52621096 0.6023785
-0.4761794 0.37881714 0.5608751 -0.22132803 0.19068497 0.06886017 0.57925236 -0.89021975
-0.3678991 -0.314563 0.088914014 -0.16516635 0.6544631 0.16624552 -0.60717076 -0.41990584
0.072895825 -0.49633992 -0.71166503 0.024091609 -0.55075425 -0.30966604 0.315234 0.14627165
0.29011795 0.42529112 0.5752112 -0.42952612 -0.58741426 -0.57963634 -0.64313173 -0.57359415
-0.038782507 0.12168817 0.24161275 1.0722989 -1.2132576 0.6104549 0.2832463 0.17119953
-0.62528384 -0.37002724 -0.51206493 0.4281879 -0.080271915 0.8454974 -0.180543 0.56168383
-0.16885188 -0.29070026 -0.21723439 0.5389066 -3.9752612 -0.4483474 0.07943076 0.7863256
-0.35329595 -0.1302203 -0.3220502 0.49788028 -0.5550402 0.12816858 0.24398707 0.9655193
0.7769803 0.46578777 0.6020343 0.17688179 -0.27160636 0.081385076 1.0851411 -0.62310356
0.0059987903 0.52203864 -0.31633097 0.1334558 0.5412427 0.6401436 -0.4247946 0.19642143
-0.3674126 0.45586133 0.3106224 -0.4579791 -0.27894834 0.18473822 0.27762473 0.2317912
-0.4476469 -0.11915032 -0.5486149 -0.11027466 -2.7427104 1.778016 -0.25586456 -0.09394973
0.32816797 -0.46962386 -0.6553323 0.08457297 0.668825 -0.69531983 0.9158519 0.54921806
-0.13763413 0.18661053 0.081618965 0.40286812 0.63332826 -0.054688156 0.18979011 1.0566657
-0.60115564 -0.68689835 -0.8690181 0.47955236 0.2786689 0.28854918 -0.0431695 0.005935371
0.23851967 -4.2168756 0.38622373 0.55300933 0.9007649 1.0291269 0.80758977 -0.21964182
0.36430568 0.074763894 1.2349092 1.2857705 -0.09059268 -0.02428317 -0.048916433 0.12257889
-0.01970484 -3.632724 -0.51958025 -0.59326476 -0.88380176 0.8813321 -0.19538438 -0.48109514
0.11478466 0.10282451 -0.5515545 0.16895765 -0.3453033 -0.2048834 0.9340291 0.44747302
0.98555607 -0.6678105 -0.4600174 0.011559427 0.39120322 0.012699544 -0.2258532 1.1169708
-0.31096897 0.26821697 0.1472392 -0.6313181 0.7511033 -0.41552565 -0.87673336 0.17398144
-3.441472 -0.4089174 -0.75773996 -0.86574763 0.4059916 1.184382 0.59908706 0.44349247
0.22810124 -0.8364599 0.11222753 0.46291852 0.6517825 1.4963528 -0.61533934 -0.2312553
-0.3727425 1.1620035 -0.10497339 -0.7379289 -0.8975551 0.7441343 0.70391065 0.4676264
0.36181867 1.7634346 0.1316824 -0.8444005 0.15947233 0.9309659 -0.060913265 0.0901171
0.62103885 -0.94492435 -0.317421 -0.04227352 -0.3174777 -0.15148497 0.059208162 0.5748531
0.25934178 -0.050908983 -0.45986795 0.07716817 -0.60732996 -0.69377494 1.1216029 0.6700654
0.21676046 0.417583 -0.20138688 0.31009 -0.66511536 0.48625997 1.1939054 1.0375179
00000000: 49ee 1d3f 20cc 543e 8044 673e bfe3 263f
00000010: e058 60bf 7441 893f cc25 27bf bf2f 10bf
00000020: 108f 1c3f 24ee 323f a873 8dbd 3147 c2be
00000030: 0ec8 f53e c976 a6be 5946 0b3f d0e0 c4bd
00000040: e5f9 cf3e 34ec d3be e296 db3e e258 973e
00000050: 78c6 12bf 4b39 543f 7410 1f3f c02f 813d
00000060: 2c48 bbbe 90eb 28bf 20b7 01be 80a3 ad3b
00000070: 38af d23e 0610 223f c3b5 063f 7a35 1a3f
00000080: c9cd f3be 52f4 c13e 8395 0f3f d1a3 62be
00000090: ec42 433e 9006 8d3d e249 143f 71e5 63bf
000000a0: 455d bcbe 670e a1be 8d18 b63d 5e21 29be
000000b0: e58a 273f 443c 2a3e 8b6f 1bbf e6fd d6be
000000c0: 684a 953d 4420 febe ae2f 36bf c45b c53c
000000d0: 3bfe 0cbf 8c8c 9ebe 5a66 a13e 3cc8 153e
000000e0: 578a 943e c2bf d93e 0b41 133f d9ea dbbe
000000f0: c860 16bf 0c63 14bf 48a4 24bf 11d7 12bf
00000100: 68da 1ebd a637 f93d 5569 773e 1741 893f
00000110: 064c 9bbf c646 1c3f a905 913e ee4e 2f3e
00000120: 9a12 20bf 3674 bdbe b016 03bf 723b db3e
00000130: 9a65 a4bd 8572 583f 44e0 38be 83ca 0f3f
00000140: 82e7 2cbe aad6 94be b172 5ebe c8f5 093f
00000150: ae6a 7ec0 ca8d e5be 98ac a23d a24c 493f
00000160: 35e3 b4be 7858 05be c4e3 a4be 2aea fe3e
00000170: 1d17 0ebf a03e 033e bfd7 793e 462c 773f
00000180: 2ee8 463f bc7b ee3e eb1e 1a3f 8020 353e
00000190: fd0f 8bbe 38ad a63d e7e5 8a3f b783 1fbf
000001a0: 8091 c43b 53a4 053f 22f6 a1be a3a8 083e
000001b0: e28e 0a3f 73e0 233f ae7e d9be b322 493e
000001c0: 811d bcbe a866 e93e e609 9f3e 3d7c eabe
000001d0: 51d2 8ebe 042c 3d3e d424 8e3e ac5a 6d3e
000001e0: f931 e5be 1505 f4bd 0772 0cbf aed7 e1bd
000001f0: 9188 2fc0 0796 e33f ae00 83be b768 c0bd
00000200: a205 a83e 8a72 f0be dcc3 27bf 9834 ad3d
00000210: 1d38 2b3f 7b00 32bf 4575 6a3f 8e99 0c3f
00000220: f6ef 0cbe d516 3f3e d827 a73d bb44 ce3e
00000230: cd21 223f b000 60bd 5758 423e d240 873f
00000240: 56e5 19bf 92d8 2fbf f877 5ebf e387 f53e
00000250: b1ad 8e3e b8bc 933e 80d2 30bd 807d c23b
00000260: 803e 743e a5f0 86c0 1ebf c53e 0592 0d3f
00000270: 8798 663f 6eba 833f 34be 4e3f c9e9 60be
00000280: 4686 ba3e d01d 993d 8111 9e3f 2194 a43f
00000290: a888 b9bd 80ed c6bc 995c 48bd a40a fb3d
000002a0: 0b6c a1bc 8d7e 68c0 3603 05bf 33e0 17bf
000002b0: d540 62bf fb9e 613f d812 48be 1a52 f6be
000002c0: 3814 eb3d a895 d23d ad32 0dbf 3c03 2d3e
000002d0: 98cb b0be f4cc 51be 881c 6f3f 2f1b e53e
000002e0: 674d 7c3f a1f5 2abf 6787 ebbe c063 3d3c
000002f0: ca4b c83e c011 503c 1046 67be e6f8 8e3f
00000300: 5337 9fbe bc53 893e dfc5 163e 109e 21bf
00000310: 4e48 403f c7bf d4be 9971 60bf 3128 323e
00000320: 1441 5cc0 9f5d d1be 3ffb 41bf a3a1 5dbf
00000330: 22de cf3e d499 973f c55d 193f 7211 e33e
00000340: 5f93 693e 3c22 56bf 8cd7 e53d a803 ed3e
00000350: 38db 263f 7d88 bf3f e186 1dbf 30ce 6cbe
00000360: 1bd8 bebe 88bc 943f 4afc d6bd e9e8 3cbf
00000370: 2cc6 65bf 967f 3e3f 7d33 343f ba6c ef3e
00000380: 4c40 b93e 3ab8 e13f c0d7 063e a22a 58bf
00000390: b74c 233e c853 6e3f 3080 79bd 508f b83d
000003a0: 67fc 1e3f 90e6 71bf 0185 a2be 0027 2dbd
000003b0: 708c a2be e01e 1bbe 4284 723d 9329 133f
000003c0: 72c8 843e f085 50bd d073 ebbe 580a 9e3d
000003d0: fa79 1bbf 3c9b 31bf af90 8f3f 6889 2b3f
000003e0: 74f6 5d3e 70cd d53e 5d38 4ebe 1ec4 9e3e
000003f0: 0045 2abf 11f7 f83e e4d1 983f 63cd 843f

fc_1.bias f4 [128]
-0.51904404 -0.6074722 0.39737335 -0.5341394 -0.40076485 0.3896421 -0.3328312 -0.45580602
0.2581745 -0.6767908 0.37652767 -0.37322226 -0.33133054 -0.23138678 -0.52816486 0.02284053
-0.34599316 0.5181753 -0.50902534 0.5692939 -0.5515944 0.6095879 -0.4715461 -0.027682066
-0.5865674 0.393149 -0.20309848 -0.52600193 -0.37589723 -0.46336043 -0.55528903 -0.4139376
0.6330721 0.081016816 0.377016 -0.2365859 -0.24068186 0.043576464 0.027944935 -0.6708731
0.402517 0.40316626 0.16540879 0.30374804 -0.63791907 -0.627669 -0.366546 -0.6178967
-0.27106154 -0.6258224 -0.39513403 0.35726896 -0.552753 0.4545788 -0.5976336 0.38021857
0.58853114 -0.2116082 -0.32926568 0.6066477 0.28499302 0.47432432 -0.38672945 0.37873814
-0.23636046 -0.6285357 -0.46587566 -0.31943744 0.008665122 -0.29065427 -0.5667265 0.5156061
0.39379218 0.2757027 -0.2925635 -0.63512105 0.007874945 -0.53666353 -0.59026134 0.49310264
-0.6979448 -0.73717445 -0.31085896 0.682358 1.0027097 0.34027016 0.12789528 -0.5345192
-0.6983462 0.46572155 -0.034210503 -0.26037008 0.38298866 -0.69805986 -0.48588014 0.040032025
-0.6223671 -0.09399789 0.4233589 0.2701068 0.15088941 0.49645063 0.14735286 -0.5345222
0.47958353 0.25665948 -0.1452696 -0.56842047 -0.6666747 0.63064915 0.07816507 -0.6431649
-0.002998139 0.52673525 -0.00021429308 -0.38688025 0.6244389 -0.011228263 -0.33647808 0.53257453
-0.4317556 -0.6791349 0.39778695 -0.3898404 -0.362192 -0.21254155 0.31282833 -0.38287392
00000000: 12e0 04bf 4c83 1bbf 8574 cb3e 5cbd 08bf
00000010: 0d31 cdbe 2b7f c73e da68 aabe 685f e9be
00000020: 732f 843e 2942 2dbf 3cc8 c03e fd16 bfbe
00000030: 28a4 a9be a8f0 6cbe d035 07bf 101c bb3c
00000040: 0426 b1be 23a7 043f 7c4f 02bf 3fbd 113f
00000050: 4a35 0dbf f40d 1c3f 7e6e f1be 80c5 e2bc
00000060: 4829 16bf d34a c93e 0cf9 4fbe 10a8 06bf
00000070: 9a75 c0be 943d edbe 6c27 0ebf a1ef d3be
00000080: 0311 223f 25ec a53d 3e08 c13e 9343 72be
00000090: 4e75 76be 3c7d 323d c7ec e43c 57be 2bbf
000000a0: b516 ce3e cf6b ce3e ec60 293e dd84 9b3e
000000b0: aa4e 23bf eaae 20bf ebab bbbe 7a2e 1ebf
000000c0: 94c8 8abe e635 20bf 024f cabe f5eb b63e
000000d0: 3881 0dbf 8dbe e83e 84fe 18bf 02ac c23e
000000e0: faa9 163f d2af 58be 8395 a8be 434d 1b3f
000000f0: 9bea 913e a3da f23e 6701 c6be f7e9 c13e
00000100: 7a08 72be b7e7 20bf 4187 eebe 4e8d a3be
00000110: 28f8 0d3c a3d0 94be fd14 11bf c3fe 033f
00000120: 219f c93e e728 8d3e e2ca 95be 4b97 22bf
00000130: ea05 013c c862 09bf 5e1b 17bf f377 fc3e
00000140: 83ac 32bf 77b7 3cbf e828 9fbe 04af 2e3f
00000150: cb58 803f e437 ae3e fbf6 023e 40d6 08bf
00000160: d1c6 32bf 0e73 ee3e 5020 0cbd 3a4f 85be
00000170: 1717 c43e 0db4 32bf 48c5 f8be 9ff8 233d
00000180: 7353 1fbf f781 c0bd 7fc2 d83e 704b 8a3e
00000190: c182 1a3e c72e fe3e abe3 163e 72d6 08bf
000001a0: f98b f53e df68 833e 8ec1 14be 0184 11bf
000001b0: 31ab 2abf 3972 213f 0215 a03d 74a6 24bf
000001c0: 6d7c 44bb 1fd8 063f dcb3 60b9 2b15 c6be
000001d0: 3adb 1f3f c0f6 37bc db46 acbe ce56 083f
000001e0: 120f ddbe c9db 2dbf bbaa cb3e 2999 c7be
000001f0: 3b71 b9be 7ea4 59be 092b a03e 0d08 c4be

fc.weight f4 [1, 128]
0.051611222 -0.040488884 -0.10294725 0.04552532 1.2379726 0.06978304 0.0675349 0.033037893
0.05112402 0.0139745325 -0.073804654 -0.18108377 -0.0506144 0.07028713 -0.0033736448 -0.0685233
0.06377948 0.07996523 -0.07463844 0.12640725 -0.036396015 0.09913444 0.040404655 -0.053643033
-0.0022748262 -0.00013069394 -0.042890675 0.048103698 0.071417674 -0.08381615 -0.065243006 -0.010721326
0.06354325 -0.14949536 -0.014358693 -0.12337627 -0.029206406 -0.19377635 -0.18201984 0.014758706
-0.013885667 -0.010630799 0.36458725 -0.013003144 0.07307642 -0.07802897 -0.07798152 11.921256
-1.3342313 -0.0724915 0.06873789 0.5721222 0.02141004 0.048907775 -0.0016146306 0.08268577
-0.018427813 0.019047342 -0.07519476 0.098706245 -0.007043221 0.017024733 1.876484 0.08728755
0.08123759 -0.029420987 0.0018332601 -1.6336216 -0.009451411 -1.4551911 0.007432252 -0.04285825
0.21326083 -0.038903166 -0.020668793 0.011222348 -2.2386193 -0.048948813 1.7714683 0.0871073
0.05716174 1.583577 0.07638391 0.07682681 -1.4907055 0.2439278 -0.121589296 -0.0017173663
-0.06426957 0.008695182 0.04611375 -1.5461837 0.6508488 0.009439997 0.044860773 -0.17447463
-0.050756186 0.017881775 0.1187 -0.021402795 0.37185508 0.20342723 -0.08084785 -0.0045012743
0.14982586 -0.0013973733 -0.1272333 0.0072277337 1.3414402 0.06311888 -0.23683707 0.035065442
-0.57253 0.11563721 -0.5699179 -0.069475465 0.15480223 -0.06838681 -0.085510105 -0.058671653
0.044748284 0.032056175 0.29215336 -0.091577485 -0.12174098 -0.41258574 -0.06350392 1.7732208
00000000: 4a66 533d acd7 25bd 02d6 d2bd c278 3a3d
00000010: e375 9e3f 69ea 8e3d bd4f 8a3d be52 073d
00000020: 6c67 513d 70f5 643c e526 97bd 066e 39be
00000030: 0c51 4fbd b3f2 8f3d 5e18 5dbb f255 8cbd
00000040: d19e 823d cfc4 a33d 0adc 98bd e770 013e
00000050: fd13 15bd ff06 cb3d 5a7f 253d ccb8 5bbd
00000060: 4015 15bb e30a 09b9 22ae 2fbd 6208 453d
00000070: 6e43 923d cda7 abbd 209e 85bd 80a8 2fbc
00000080: f722 823d 5015 19be b940 6bbc b3ac fcbd
00000090: 4642 efbc 4f6d 46be 6963 3abe 80ce 713c
000000a0: b580 63bc ce2c 2ebc 2eab ba3e 240b 55bc
000000b0: 17a9 953d a7cd 9fbd c6b4 9fbd 77bd 3e41
000000c0: 17c8 aabf 6c76 94bd 73c6 8c3d 9a76 123f
000000d0: 1c64 af3c 8553 483d 03a2 d3ba 2857 a93d
000000e0: edf5 96bc 2c09 9c3c b6ff 99bd 8026 ca3d
000000f0: d2ca e6bb 7477 8b3c a130 f03f d1c3 b23d
00000100: e55f a63d 4804 f1bc 004a f03a 831a d1bf
00000110: 17da 1abc b443 babf 408a f33b 228c 2fbd
00000120: 0c61 5a3e ed58 1fbd 9a51 a9bc f0dd 373c
00000130: 8a45 0fc0 8d7e 48bd 79bf e23f 5065 b23d
00000140: 6e22 6a3d a7b2 ca3f 2b6f 9c3d 6057 9d3d
00000150: 70cf bebf 36c8 793e cf03 f9bd 4019 e1ba
00000160: c49f 83bd 3d76 0e3c c6e1 3c3d 59e9 c5bf
00000170: 079e 263f 38aa 1a3c eebf 373d 7aa9 32be
00000180: b8e5 4fbd cd7c 923c fc18 f33d ea54 afbc
00000190: ca63 be3e 3a4f 503e 8f93 a5bd 6d7f 93bb
000001a0: f36b 193e 1128 b7ba 7249 02be a0d6 ec3b
000001b0: 50b4 ab3f 7944 813d 6b85 72be c8a0 0f3d
000001c0: 5391 12bf 34d3 ec3d 24e6 11bf 2749 8ebd
000001d0: 7a84 1e3e 620e 8cbd ec1f afbd b051 70bd
000001e0: fa49 373d 564d 033d 2095 953e fa8c bbbd
000001f0: 5653 f9bd 703e d3be 580e 82bd e6f8 e23f
